metro_interstate_traffic_volume_forecaster.pt (torch, 170311 bytes, 7 tensors)

weight_ih_l0 f4 [400, 1]
0	0x400f2d3f	2.2371366
1	0xbf65315f	-0.8952846
2	0x3f1d0f8d	0.61351854
3	0x4000212f	2.0020254
4	0x3d071624	0.0329801
5	0xbf83a338	-1.0284185
6	0x3e0fa454	0.1402753
7	0xbea8c277	-0.32960865
8	0x3fea1b77	1.8289632
9	0x3fa567fe	1.2922361
10	0x3f300eb2	0.68772423
11	0x3e0dd51c	0.13850826
12	0x3d852b05	0.06502346
13	0xbff89f8d	-1.9423691
14	0x402c238d	2.6896698
15	0x3f697638	0.9119601
16	0x3fa67d54	1.3006997
17	0x3fe7bc56	1.810435
18	0x3e03938f	0.12849258
19	0xbf401ca9	-0.7504373
20	0xbfbef1bb	-1.491752
21	0xbe4a3252	-0.19745758
22	0x3f7cd801	0.98767096
23	0x40296fc0	2.6474457
24	0x3f29f47c	0.6638868
25	0x3faaec83	1.3353428
26	0xbfc74e72	-1.5570815
27	0xbf73d483	-0.9524614
28	0x3e8b3931	0.2719207
29	0x3f2ec709	0.68272454
30	0x4088743e	4.2641897
31	0xc00c4312	-2.1915936
32	0x4012e8c2	2.2954564
33	0x40a629a2	5.192582
34	0x3f2c6a36	0.67349565
35	0x3d84fe3c	0.06493804
36	0x3f49831e	0.78715694
37	0x3f8350d9	1.0259048
38	0xbedb9cc3	-0.42893037
39	0x3f501388	0.812798
40	0x3f31dded	0.69479257
41	0x3f99d67a	1.2018578
42	0xbf9acd21	-1.209385
43	0xbf55afa9	-0.8347116
44	0x3ef24f97	0.47326347
45	0x3f14120c	0.5784004
46	0xbf857cbd	-1.0428692
47	0x3dc8d8a5	0.09806947
48	0xbff563a7	-1.9171036
49	0xbe5a5967	-0.21323167
50	0xbf812913	-1.009066
51	0xbf24eb13	-0.64421195
52	0x3ef6b700	0.48186493
53	0x3e1ef635	0.15523608
54	0x3f1ab51b	0.60432595
55	0x3f1212dc	0.5706003
56	0xbf3622f8	-0.7114711
57	0x3f203011	0.62573344
58	0x3fa1c211	1.2637349
59	0xbf2b69fc	-0.66958594
60	0xbe155d0d	-0.14586277
61	0x3e7ea88f	0.24868988
62	0x40680e9d	3.625892
63	0x3ea98faa	0.3311742
64	0x3f8dd240	1.1079788
65	0xbfe22020	-1.7666054
66	0xbf549f30	-0.830554
67	0xbf97dc9b	-1.1864198
68	0xbf8f1183	-1.1177219
69	0x3d7cb4e4	0.06169595
70	0xbdd9042b	-0.10596498
71	0x3e2bc424	0.1677404
72	0x3fe93fed	1.8222634
73	0x3efb785b	0.4911526
74	0xc0726636	-3.7874885
75	0xbf592f38	-0.84837675
76	0x3f46683d	0.77502805
77	0x3f47939f	0.77959627
78	0xc0038237	-2.0548227
79	0xbf67caf3	-0.9054405
80	0x3f38fa0b	0.72256535
81	0xbf9da4d6	-1.2315929
82	0x40672e2b	3.6121929
83	0xbefb86ca	-0.49126273
84	0xbfcb7519	-1.589511
85	0x3e21851a	0.1577343
86	0xbf2d4b25	-0.67692786
87	0xbf31c947	-0.6944775
88	0x3f61ec03	0.8825075
89	0xbf2f1944	-0.6839793
90	0x3f6e90b3	0.93189543
91	0x3f80e130	1.0068722
92	0x3d2a0bd1	0.041515175
93	0x3e401cc4	0.18760973
94	0xbb498ae9	-0.0030752963
95	0x3dfcc4c9	0.12342221
96	0x3fd1a9c1	1.637993
97	0xbf051ac7	-0.51993984
98	0x3f10e857	0.5660452
99	0xc067717f	-3.6163023
100	0x3eb5a4c8	0.3547728
101	0x4026007a	2.593779
102	0xbff1fd3a	-1.8905404
103	0x3fae3dee	1.361265
104	0x3fc05b55	1.5027872
105	0x3fa8b9b2	1.318167
106	0xbf148715	-0.5801862
107	0x3f0c7108	0.5485997
108	0x3f7be43c	0.98395133
109	0x3f853b1b	1.0408663
110	0xbe45a104	-0.19299704
111	0xbfba13a2	-1.4537241
112	0xbe93a317	-0.28835365
113	0x3faaac6c	1.3333869
114	0x3d8d6120	0.06903291
115	0x402e2dd0	2.7215462
116	0xbd8508c3	-0.06495812
117	0xbee88b63	-0.45418844
118	0x3fe8ad7c	1.8177943
119	0xbf49a4e8	-0.7876725
120	0x3e385c93	0.18004064
121	0x3fa8d2bf	1.3189315
122	0xbf1f888a	-0.6231772
123	0x3e552ebe	0.20818612
124	0x3f01a2cd	0.5063904
125	0x3f68585f	0.90759844
126	0xbf1a97f4	-0.6038811
127	0xbe3f7f02	-0.18700793
128	0x3ee713e0	0.4513235
129	0xbde1e756	-0.11030452
130	0x3ff355e7	1.901059
131	0xbf6ac7a9	-0.9171091
132	0x3f7c0cee	0.9845723
133	0xbf6cb987	-0.9247059
134	0x3f198bf9	0.59979206
135	0xbfd2a9b8	-1.6458044
136	0xbf3f24ae	-0.74665344
137	0xc003327d	-2.0499566
138	0xbf5576f1	-0.83384615
139	0xc030c207	-2.7618425
140	0xbf9b90c6	-1.2153556
141	0xbf12b92e	-0.5731381
142	0xbf69560b	-0.91146916
143	0xbf5b968a	-0.8577658
144	0x3f33ee42	0.7028543
145	0x3fa9fd2d	1.3280388
146	0x3af0b3ac	0.0018364093
147	0x3f61883e	0.88098514
148	0x4089bbf3	4.304193
149	0x3ff98131	1.9492551
150	0x403b605e	2.9277568
151	0xbe853cf5	-0.2602307
152	0xbf610969	-0.87904984
153	0xbfaa7502	-1.3316958
154	0xbf88d9ab	-1.0691427
155	0xbfe4f02f	-1.7885798
156	0x3fed6281	1.8545686
157	0xbebb946a	-0.36636668
158	0xbef6c4d0	-0.4819703
159	0xbf2a8ec0	-0.6662407
160	0xbf931a06	-1.1492317
161	0x3df5fa84	0.12010673
162	0xc008799d	-2.1324227
163	0x40895b9e	4.2924337
164	0xbf680d68	-0.90645456
165	0xbfc87a71	-1.5662366
166	0x3ed432fc	0.41445148
167	0x3f741af0	0.95353603
168	0x3edd7ec9	0.43260792
169	0x404f9370	3.2433739
170	0x3d4df250	0.050279915
171	0x3e045d19	0.12926139
172	0xbf46d439	-0.77667576
173	0xbf2f3f27	-0.6845574
174	0xbeca5705	-0.39519516
175	0xbf9ef2c1	-1.2417833
176	0xbe49db57	-0.19712578
177	0x3fb67e4a	1.425729
178	0xbfa67e9d	-1.3007389
179	0xbf393f65	-0.7236236
180	0xc044baa9	-3.0738928
181	0xc00c1977	-2.1890543
182	0xbf52095c	-0.8204553
183	0xbf5b3080	-0.8562088
184	0xbf746778	-0.9547038
185	0x3f5014e2	0.81281865
186	0x40540cb3	3.313275
187	0xbf443aa8	-0.76652
188	0xbf702bea	-0.9381701
189	0xbdb8f26f	-0.090306155
190	0xbe4e0162	-0.20117715
191	0x3f08eae8	0.5348344
192	0xbf97158d	-1.1803452
193	0xbfc3472d	-1.5256096
194	0x40a30cdc	5.0953197
195	0x3ffe7594	1.9879632
196	0x3ef378ca	0.47553092
197	0xbed5f3da	-0.41787606
198	0x3f965c84	1.1746984
199	0xbf83a1dc	-1.028377
200	0x3fb8382e	1.4392145
201	0xbfb4188a	-1.4069989
202	0x4002f438	2.046156
203	0xbf93ebf2	-1.155638
204	0x3f271a05	0.6527408
205	0xbf93afe4	-1.1538053
206	0xc027a243	-2.6192787
207	0xbfe0af61	-1.7553521
208	0xc071d3f3	-3.7785614
209	0xc0687522	-3.6321492
210	0x3fe33975	1.775191
211	0x400e6e6a	2.2254891
212	0xbfd73f12	-1.6816123
213	0xc005c9c3	-2.0904396
214	0xc03abc14	-2.9177294
215	0x402a17e0	2.6577072
216	0xbfc36cc0	-1.5267563
217	0x40123a27	2.2847993
218	0x3f4187ed	0.7559803
219	0xbf89ae77	-1.0756367
220	0xbfeecc2c	-1.8656058
221	0x3f27b2f7	0.65507454
222	0xc0088eba	-2.1337113
223	0x3f4ab6c0	0.79185104
224	0xbee53ff5	-0.44775358
225	0x3d17e546	0.037083887
226	0x400f5d72	2.2400784
227	0x3ffc27e2	1.9699671
228	0xbfc83f30	-1.5644283
229	0xbfe05672	-1.7526381
230	0x3ed64bce	0.4185471
231	0x40247f70	2.5702782
232	0xbf8dedc0	-1.108818
233	0x40a1f6ee	5.061393
234	0x3f46d18c	0.77663493
235	0x40026c08	2.0378437
236	0xbd82f496	-0.06394307
237	0xc02862bc	-2.6310263
238	0xbf1462a1	-0.57962996
239	0xbff24d36	-1.8929813
240	0x3fc50749	1.5392848
241	0x3f14044f	0.57819074
242	0xc0072cfc	-2.1121206
243	0xbeaad3fb	-0.33364853
244	0xbe5d04af	-0.21583818
245	0xbfcb2fa7	-1.5873917
246	0xbf85e68d	-1.0460984
247	0x3fbe5b60	1.4871635
248	0x3f9945d0	1.197443
249	0x4027d63c	2.6224508
250	0xbf8d2d38	-1.1029425
251	0x3f794445	0.97369796
252	0xbfdbb79e	-1.716541
253	0xbf7bf879	-0.98426014
254	0x403d6b1e	2.959663
255	0xc00dfa29	-2.2183936

weight_hh_l0 f4 [400, 100]
0	0xbf43a14c	-0.76417994
1	0x3fb2a026	1.3955123
2	0xc03110bd	-2.7666466
3	0x3d1eba68	0.03875199
4	0xbe3cfcf0	-0.18455863
5	0xbf2d1825	-0.67614967
6	0xbf3141dc	-0.6924112
7	0x3ec917d3	0.3927599
8	0xbe4b1f63	-0.19836192
9	0x40993fb0	4.7890244
10	0xbfef16b5	-1.8678805
11	0xbf864161	-1.0488702
12	0xbf3ff1c3	-0.74978274
13	0x40142e19	2.3153136
14	0x3fe4f226	1.7886398
15	0xbf8f4a4c	-1.1194549
16	0xbfa994f2	-1.324858
17	0x3f0b8f7e	0.54515827
18	0xbfeb6db4	-1.8392854
19	0xbfc0b9c7	-1.5056695
20	0xc00dc8e2	-2.215386
21	0xbf30b397	-0.6902403
22	0x3e39bdeb	0.18138854
23	0xbf37c7d3	-0.7178928
24	0x3f86f612	1.0543845
25	0xbdbbee7a	-0.09176345
26	0xc057a506	-3.3694472
27	0xbfbd509b	-1.4790224
28	0x3e8c0c79	0.27353266
29	0x3fe249f4	1.7678819
30	0x3f64acaa	0.89325964
31	0xc01316a5	-2.298257
32	0xbef834cd	-0.48477784
33	0xbdd7945a	-0.10526343
34	0xc02f51b3	-2.7393615
35	0xbdbff853	-0.09373536
36	0x3e443ce0	0.19163847
37	0x408486d9	4.141461
38	0x3ff8a666	1.9425781
39	0x405bc3e9	3.4338324
40	0xbf875759	-1.0573531
41	0xc014ece4	-2.3269587
42	0x3fc473a0	1.5347786
43	0x40433af0	3.0504723
44	0xbf939578	-1.1529989
45	0x401c6245	2.443498
46	0x4033c4a7	2.8088777
47	0x3e90c213	0.28273067
48	0x3fbbb757	1.4665326
49	0xc02eb01c	-2.7294989
50	0xbf2947ae	-0.66125
51	0xbea643dd	-0.3247365
52	0x3fc66254	1.5498757
53	0xbfd66d71	-1.6752149
54	0xbf40021e	-0.7500323
55	0x40757940	3.8355255
56	0xbe10bbc4	-0.14134127
57	0x3f89cd60	1.07658
58	0xc04a452a	-3.1604714
59	0xbf9c9a81	-1.2234651
60	0xc08fcbd3	-4.493631
61	0xc07e73df	-3.9758222
62	0x3e2d423f	0.16919802
63	0xc085863c	-4.172636
64	0x3f0d5943	0.5521433
65	0x3ecfa62e	0.40556473
66	0xbfe21451	-1.766245
67	0xbccb92ff	-0.024850367
68	0x3e8f2b3c	0.27962673
69	0xc0042991	-2.065037
70	0x3f73442f	0.95025915
71	0xbe4995db	-0.19686072
72	0x3f74621e	0.95462215
73	0xbf6a08d5	-0.91419727
74	0xbf895288	-1.0728312
75	0xbe85dcf0	-0.26145124
76	0x401e21b3	2.4708068
77	0xbeb9030a	-0.3613513
78	0xbf10a99f	-0.5650882
79	0xbf17ab94	-0.5924618
80	0xbfe252f3	-1.7681564
81	0x3f89eba2	1.0775034
82	0xc005bd56	-2.0896811
83	0x3fd957a9	1.6979877
84	0x4045705c	3.0849829
85	0xbf460bf4	-0.7736199
86	0x3f9c5067	1.2212037
87	0xbf4cad4e	-0.7995194
88	0xbf9f4285	-1.2442175
89	0xbed03420	-0.40664768
90	0xbf139533	-0.57649535
91	0x3fc85ed2	1.5653937
92	0x403b840a	2.929934
93	0x3ee1a9c6	0.4407484
94	0x3fa3e586	1.280442
95	0xbee747b7	-0.45171902
96	0x3f6c8b22	0.923998
97	0xbe63dd91	-0.2225249
98	0x3eef4a7e	0.4673652
99	0x3f5fab93	0.87371176
100	0x3f936891	1.1516286
101	0xbf5046f1	-0.8135825
102	0xbd3f1916	-0.046654783
103	0xbd881dc0	-0.06646299
104	0x3e3fd465	0.18733366
105	0xbfcb9b29	-1.5906726
106	0x3fd2490b	1.6428541
107	0xbe917346	-0.2840826
108	0xbfa44d57	-1.2836102
109	0x3ed5cc91	0.41757634
110	0x3ec89628	0.3917706
111	0x3e4fb851	0.20285155
112	0x3fb0c07b	1.380874
113	0xbfcd0070	-1.6015759
114	0x3e9ef7d5	0.31048456
115	0xbdded084	-0.10879615
116	0x3f288cbb	0.6583974
117	0x3f5ed05b	0.87036675
118	0xbf85f4fd	-1.046539
119	0xbec7dab9	-0.3903406
120	0x3f9c4f54	1.2211709
121	0xbe19b333	-0.15009765
122	0xbf8c6eda	-1.0971329
123	0xc03d0117	-2.9531915
124	0x3ffdccb3	1.9828094
125	0xbe1dc9fe	-0.15409085
126	0x3fa88022	1.3164103
127	0x3f08b2b4	0.5339768
128	0xbef387bd	-0.47564498
129	0x3ef7f167	0.48426363
130	0x3ffaeb02	1.9602969
131	0x403bf061	2.9365466
132	0x3f103cfc	0.56343055
133	0x3fa2c0f3	1.2715133
134	0xbe84aa1d	-0.25911036
135	0x404c2bd4	3.190175
136	0xbe8eb7d6	-0.2787463
137	0x3f989f68	1.1923647
138	0x3fbffd9a	1.4999268
139	0xc0478f5c	-3.118125
140	0xbdf6a9a7	-0.12044077
141	0xbe872013	-0.26391658
142	0x3f138108	0.5761876
143	0x3fbbb636	1.4664981
144	0xbeee221a	-0.46510392
145	0xbd8127e1	-0.063064344
146	0xbf7af789	-0.9803396
147	0x3ef0b21e	0.47010893
148	0x3f9017f8	1.1257315
149	0xbf41ba30	-0.75674725
150	0xc010fe0d	-2.265506
151	0x3f775b35	0.96623546
152	0x3fa00193	1.250048
153	0xbf8b7433	-1.0894836
154	0xc0043fcd	-2.066394
155	0xbf58f2a6	-0.8474525
156	0x3f12ca6f	0.5734014
157	0x3e405231	0.18781354
158	0xbf685cfe	-0.90766895
159	0xbffeff9d	-1.9921757
160	0xbf05f11a	-0.52321017
161	0xbfdaf903	-1.7107242
162	0xbfa621c8	-1.2979059
163	0xbfc8984c	-1.5671477
164	0xbf2c3af7	-0.67277473
165	0x402309ba	2.5474687
166	0x3f22ca37	0.63589805
167	0xbe11077d	-0.14163013
168	0xbfa0641d	-1.2530552
169	0xc033826f	-2.804836
170	0xbf94c859	-1.1623641
171	0x3d590f42	0.052993067
172	0xc0646ac2	-3.569016
173	0x3fd5c7e4	1.6701627
174	0xbfd1669e	-1.6359441
175	0x3fd5439f	1.6661261
176	0xbfc05e1b	-1.5028719
177	0xbe8db889	-0.27679852
178	0x3fb1d6e9	1.389371
179	0xbf7f1424	-0.9964011
180	0x4038991c	2.884345
181	0xc07ef7f0	-3.983883
182	0xbf76254f	-0.9615068
183	0xbfcb2ef5	-1.5873705
184	0xc06c816d	-3.6953995
185	0x401177a2	2.2729268
186	0x3fdb0b98	1.7112913
187	0x3d8584a8	0.06519443
188	0xbfce2268	-1.610425
189	0xbec4923f	-0.38392827
190	0xbf82a1e5	-1.0205656
191	0xbe31fe40	-0.17382145
192	0x3f12d415	0.5735486
193	0xbf618968	-0.8810029
194	0xc01fe071	-2.4980738
195	0xbf9b797c	-1.2146449
196	0x3ea40a57	0.3203914
197	0xbe892568	-0.2678635
198	0xbfabd462	-1.3424189
199	0xbf3120c6	-0.69190633
200	0xc03f28d1	-2.9868662
201	0xbfc865d1	-1.5656072
202	0xc019f1e1	-2.405388
203	0x3f89a258	1.0752668
204	0x3f01ffc4	0.5078089
205	0x3f02bbec	0.51067996
206	0x3f5f9815	0.87341434
207	0xbf427a02	-0.7596742
208	0xc03354d2	-2.802052
209	0xc018025c	-2.375144
210	0x3f8d46a3	1.1037182
211	0xbfc636a8	-1.548543
212	0x4003dabc	2.0602255
213	0x400fcaba	2.2467484
214	0x3f83057b	1.0236048
215	0x3c8d4c63	0.017248338
216	0xbb984df9	-0.004647967
217	0x400e7991	2.2261698
218	0x3fdb01c1	1.710991
219	0x3f55db57	0.8353781
220	0x404a30e9	3.1592352
221	0xbd0fdc8a	-0.03512243
222	0x3fdbe819	1.7180206
223	0x3ded8880	0.11598301
224	0xbfbf9819	-1.4968292
225	0x3fe95b12	1.8230917
226	0x3f8c88c5	1.0979239
227	0x3fc1a885	1.5129553
228	0xbfe24566	-1.7677429
229	0x3fa077b3	1.2536529
230	0xbfb54109	-1.4160472
231	0x3e15c401	0.14625551
232	0x3f3d8b59	0.7404075
233	0x405937c0	3.3940277
234	0x3e42a3c5	0.19007786
235	0xbeb39570	-0.3507495
236	0xbe9d080e	-0.30670208
237	0xbfed8c2e	-1.8558404
238	0xbf75a841	-0.9595986
239	0xbf98bf23	-1.193333
240	0x3dcfcd42	0.10146572
241	0xc0877c02	-4.2338877
242	0xbf30da4a	-0.6908308
243	0x3f91a064	1.1377072
244	0x4036b275	2.8546422
245	0x3e080494	0.13282996
246	0xbeb89c93	-0.36056957
247	0x3f68bc36	0.9091219
248	0x3e307118	0.17230642
249	0xc0341407	-2.8137224
250	0x3cbad67a	0.022807349
251	0x3fa6fad8	1.3045301
252	0x3f57e4e8	0.8433366
253	0xbec88745	-0.39165702
254	0xbf9a1596	-1.2037838
255	0x3f10d9e5	0.5658248

bias_ih_l0 f4 [400]
0	0xbf97cefd	-1.1860043
1	0xbf56d2f1	-0.8391562
2	0xbf7992b4	-0.97489476
3	0xbfaf9e0e	-1.372011
4	0xbf67b5d8	-0.90511847
5	0xbe87727f	-0.2645454
6	0xbf3c1948	-0.73476076
7	0xbf6cf754	-0.9256489
8	0xbfb50a0e	-1.4143693
9	0x3e90cc24	0.28280747
10	0xbf635c40	-0.8881264
11	0xbf551dc3	-0.8324854
12	0xbfae3f7e	-1.3613126
13	0xbf5a180b	-0.85192937
14	0xbee614dc	-0.4493779
15	0xbf42fc19	-0.7616592
16	0xbf93a1ca	-1.1533749
17	0xbf35a9ed	-0.7096241
18	0xbf8c7ed4	-1.0976205
19	0xbfb46495	-1.4093195
20	0xbfa8b017	-1.3178738
21	0xbf3a101d	-0.72680837
22	0xbf852746	-1.040261
23	0xbf82cc2a	-1.0218556
24	0xbf7ee7db	-0.99572533
25	0xbfdd1b52	-1.7273962
26	0xbe88519f	-0.26624772
27	0xbf44d342	-0.76884854
28	0xc05fab03	-3.4948127
29	0xbee89241	-0.45424083
30	0xbea296a8	-0.31755567
31	0xbf2f827c	-0.6855848
32	0xbf632a3e	-0.8873633
33	0xbf78e8eb	-0.97230405
34	0xbf93e5b0	-1.155447
35	0xbeaf3d6e	-0.34226555
36	0xbf85a171	-1.0439893
37	0xbf554987	-0.8331532
38	0xbf1d0066	-0.6132873
39	0xbf06c981	-0.5265122
40	0xbf912c0c	-1.1341567
41	0xbef410ca	-0.4766906
42	0xbf0d6d5c	-0.55244994
43	0xbf8fa211	-1.1221334
44	0xbf8d43cd	-1.1036316
45	0xbf9926df	-1.1964988
46	0xbf36c34a	-0.7139174
47	0xbf751b4a	-0.95744765
48	0xbf9cbf67	-1.2245911
49	0xbf9df31a	-1.2339814
50	0xbf98a06c	-1.1923957
51	0xc02ddd77	-2.7166421
52	0xbf9501b4	-1.1641145
53	0xbf2de853	-0.67932624
54	0xbf156f48	-0.58372927
55	0xbf44d811	-0.7689219
56	0xbfc59bb2	-1.543814
57	0xbf9fc3ac	-1.2481589
58	0xbef6129c	-0.48061073
59	0xbf3eff47	-0.7460827
60	0xbf3816d5	-0.7190984
61	0xbf435cd4	-0.7631352
62	0xbfccd1c2	-1.6001513
63	0xbf73e25f	-0.9526729
64	0xbef69dec	-0.4816736
65	0xbf57c715	-0.8428815
66	0xbfc45ade	-1.534023
67	0xbffb1451	-1.9615575
68	0xbea378c4	-0.31928074
69	0xbf2e6791	-0.6812678
70	0xbf5e8551	-0.86922175
71	0xc059a160	-3.4004745
72	0xbf53837f	-0.8262252
73	0xbf6e0a16	-0.9298414
74	0xbe20fd8c	-0.1572172
75	0xbf60bb90	-0.877862
76	0xbf51d6e2	-0.8196851
77	0xbfb82420	-1.4386024
78	0xbedef7ee	-0.4354853
79	0xbf3940cc	-0.723645
80	0xbf6d01ba	-0.9258076
81	0xbf33af73	-0.7018959
82	0xbf684f50	-0.9074602
83	0x3f3a1b90	0.7269831
84	0xbf66e137	-0.901874
85	0xbf90dbe1	-1.1317102
86	0xbf638b5d	-0.88884526
87	0xbf280c4a	-0.6564375
88	0xbf4973d3	-0.7869236
89	0xbf93f728	-1.1559801
90	0xbfb69945	-1.4265524
91	0xbf6213f1	-0.8831168
92	0xbf389085	-0.7209552
93	0xbf14b27e	-0.5808486
94	0xbd237abb	-0.039911967
95	0xbf1390cb	-0.5764281
96	0xbeeab868	-0.45843816
97	0xbf5fd4a7	-0.87433857
98	0xbf326bb0	-0.6969557
99	0xbf8c98ae	-1.0984094
100	0xbf47f319	-0.7810531
101	0xbf6d1aba	-0.92618906
102	0xbe516954	-0.20450336
103	0xbfa8cde8	-1.3187838
104	0xbf1e9f2b	-0.6196162
105	0xbf2d0e4f	-0.6759996
106	0xbdb912a4	-0.090367585
107	0xbfd9db58	-1.7020063
108	0xc013f127	-2.3115938
109	0xbf320b1d	-0.6954821
110	0xbf1fb3fd	-0.62384015
111	0xbee93f8e	-0.455563
112	0xbfaf1042	-1.3676836
113	0x3e0ef6cf	0.13961338
114	0xc03f5593	-2.989598
115	0xbf6bcdbb	-0.92110795
116	0xbf2b6412	-0.6694957
117	0xbfca6684	-1.5812535
118	0xbef0dd9f	-0.47044083
119	0xbf594d72	-0.848838
120	0xbf41ef64	-0.75755906
121	0x3e72a00e	0.23693869
122	0x3ece07ba	0.4024027
123	0x3d363e30	0.0444929
124	0xc003f4e0	-2.061821
125	0xbf3b867e	-0.73252094
126	0xbfa548d4	-1.291285
127	0xbf86f8af	-1.0544642
128	0xbf14d15e	-0.5813197
129	0xbf04b3eb	-0.51837033
130	0xbf82c845	-1.0217367
131	0xbf587a09	-0.8456121
132	0xbd3c71c7	-0.046006944
133	0xbdfc9d45	-0.12334684
134	0xbfde45e9	-1.7365085
135	0xbfb9ec8e	-1.4525316
136	0xbca79f09	-0.020461576
137	0xbf04a1ec	-0.51809573
138	0x3c95b9ff	0.018277166
139	0xbf5e4f0a	-0.86839354
140	0xbf87bdc9	-1.0604793
141	0xbfc1ae2e	-1.513128
142	0xbf5308bf	-0.8243522
143	0xbf8aa1f3	-1.0830673
144	0x3eaa80b7	0.33301327
145	0xbf8c69dd	-1.0969807
146	0xbed7c547	-0.42142698
147	0xbedd647e	-0.43240732
148	0x3f6aa5af	0.91659063
149	0xbfcb5db2	-1.5887969
150	0x3d70a913	0.05875499
151	0xbfc4a9c5	-1.536431
152	0xbfdcd626	-1.7252853
153	0x3ed19050	0.40930414
154	0xc0391591	-2.8919413
155	0xbf18759a	-0.59554446
156	0x3f41b1d0	0.75661945
157	0xbca265c5	-0.019823918
158	0x3eaa9c86	0.33322543
159	0xbcf9c9c4	-0.030491717
160	0xbf3086d8	-0.68955755
161	0xbf7914ea	-0.9729754
162	0xc0b18c7a	-5.548398
163	0xbe8a8e8a	-0.27061874
164	0xbf7d1b58	-0.9886985
165	0xbf6ea774	-0.93224263
166	0xbfce1eef	-1.610319
167	0xbf8926a8	-1.0714922
168	0x3f41dbd0	0.7572603
169	0x3de8a8a2	0.11360289
170	0xbf1e5f3f	-0.61864084
171	0xbfa1ce95	-1.2641169
172	0x3e317e10	0.17333245
173	0xbfbb99e2	-1.4656336
174	0xbf2b16a8	-0.66831446
175	0xbf238207	-0.6387028
176	0xbf5f0de1	-0.8713055
177	0x3e5a7aaf	0.21335863
178	0xbf92f778	-1.1481771
179	0x3e353063	0.1769424
180	0x3df8289b	0.1211712
181	0xbf463de3	-0.7743818
182	0xbfd49821	-1.6608926
183	0xbebf3682	-0.37346274
184	0xbdf9d64e	-0.121990785
185	0x3fae696e	1.3625925
186	0xbf7a5ac3	-0.9779474
187	0xbedbeee5	-0.429557
188	0x3e498b4f	0.19682048
189	0xbe96635e	-0.29372686
190	0xc00194c6	-2.0247054
191	0xbf2e04c9	-0.6797605
192	0xbead57a5	-0.3385593
193	0xbe98d75c	-0.29851806
194	0x3f1dbb6d	0.61614114
195	0xbf2a8c46	-0.6662029
196	0xbf8a5a2b	-1.0808767
197	0xbee1373c	-0.43987453
198	0xc01caf7a	-2.4482102
199	0xc019da8b	-2.4039638
200	0x3e06cfa4	0.13165146
201	0xbf2288b6	-0.63489854
202	0x3ea27ded	0.317367
203	0xbe7e0f13	-0.24810438
204	0x3eb892bc	0.3604945
205	0xbedd417b	-0.4321402
206	0xbed7dc77	-0.4216039
207	0x3f2fba0c	0.6864326
208	0x3ed0d60f	0.40788314
209	0xbe1b3dae	-0.15160248
210	0xbdd40ac5	-0.103536166
211	0x3c11bae9	0.0088946605
212	0xbeed883f	-0.4639301
213	0xbd75c602	-0.060003288
214	0x3eb2a9b7	0.34895107
215	0xbf20fd9a	-0.62886965
216	0x3d86daba	0.065846875
217	0xbedb42ba	-0.42824346
218	0xbed16f25	-0.4090511
219	0xbf86e636	-1.0539005
220	0xbedd51e8	-0.43226552
221	0x3f23e79a	0.6402527
222	0x3cc73837	0.024318798
223	0xbf270a4f	-0.65250105
224	0xbf0fc74a	-0.56163466
225	0x3e5464e9	0.20741619
226	0x3f0f1349	0.558888
227	0x3eabbd58	0.33542895
228	0x3e63e400	0.22254944
229	0xbebfd430	-0.37466574
230	0xbd4db213	-0.050218653
231	0x3f405203	0.7512514
232	0xbe3f264c	-0.18666953
233	0xbf566c1e	-0.83758724
234	0x3e307071	0.17230393
235	0x3ed4e359	0.41579702
236	0x3ebdeb9c	0.37093818
237	0x3d954500	0.07288551
238	0x3df0f1a8	0.11764842
239	0xbc0a9149	-0.00845749
240	0xbdec2083	-0.115296386
241	0x3eb52bf5	0.353851
242	0xbe502c22	-0.20329335
243	0xbe27c06c	-0.16381997
244	0x3d81f323	0.06345203
245	0xbe875e1a	-0.2643898
246	0xbe473f1c	-0.19457668
247	0xbeb9a54e	-0.3625893
248	0xbeb1e88f	-0.3474774
249	0x3ef1de86	0.47240084
250	0x3d7a021e	0.061037175
251	0xbecffaa1	-0.40620902
252	0x3ec0d03a	0.37658864
253	0xbe7ff7d1	-0.24996878
254	0x3e668269	0.22510685
255	0xbcac9c05	-0.02107049

bias_hh_l0 f4 [400]
0	0xbf91a77e	-1.137924
1	0xbf4c0362	-0.7969266
2	0xbf701d88	-0.9379506
3	0xbfc0fe3f	-1.507759
4	0xbf69abfb	-0.91278046
5	0xbe6cc32e	-0.2312133
6	0xbf38470b	-0.719834
7	0xbf79c0bd	-0.9755972
8	0xbf9f5a80	-1.2449493
9	0x3ea0bb4e	0.31392902
10	0xbf8034b4	-1.0016084
11	0xbf4bd993	-0.79628867
12	0xbfb5160f	-1.4147357
13	0xbf32c619	-0.69833523
14	0xbefc1614	-0.49235594
15	0xbf5440c8	-0.8291135
16	0xbf80dcd9	-1.0067397
17	0xbf0ba3e2	-0.5454694
18	0xbf7bb076	-0.98316133
19	0xbfb3f622	-1.4059489
20	0xbfaeb2f6	-1.3648365
21	0xbf34b68f	-0.7059106
22	0xbf8256a9	-1.0182697
23	0xbf6f9eb5	-0.9360154
24	0xbf7fe77a	-0.9996258
25	0xbfd3425f	-1.650463
26	0xbe9182f5	-0.28420225
27	0xbf7333eb	-0.95001096
28	0xc059ba05	-3.4019787
29	0xbedc091e	-0.42975706
30	0xbed345a9	-0.41264084
31	0xbf0abe2f	-0.5419645
32	0xbf5fd421	-0.8743306
33	0xbf7688a6	-0.9630226
34	0xbf8df25a	-1.1089585
35	0xbe603241	-0.2189417
36	0xbf9a373f	-1.204811
37	0xbf522e80	-0.82102203
38	0xbf3dabd0	-0.7409029
39	0xbec11840	-0.37713814
40	0xbf836545	-1.026528
41	0xbedbbc3b	-0.42917046
42	0xbf039f62	-0.51415074
43	0xbfa3b6d3	-1.2790169
44	0xbf89176f	-1.0710276
45	0xbf979665	-1.1842772
46	0xbf34c72a	-0.706164
47	0xbf78fe2e	-0.9726285
48	0xbfabbd9c	-1.3417239
49	0xbf9c70ff	-1.2221984
50	0xbfa0876e	-1.254133
51	0xc024d203	-2.575318
52	0xbf89d195	-1.0767084
53	0xbf3f021a	-0.7461258
54	0xbf1e4139	-0.6181827
55	0xbf5a478c	-0.8526542
56	0xbfb44086	-1.4082191
57	0xbf975111	-1.1821615
58	0xbecf913e	-0.40540498
59	0xbf5b86df	-0.8575267
60	0xbf3fad57	-0.7487387
61	0xbf72930d	-0.9475563
62	0xbfd34f14	-1.6508508
63	0xbf7ebd27	-0.99507374
64	0xbee36d9d	-0.44419566
65	0xbf6e4bf3	-0.9308464
66	0xbfcfa540	-1.6222305
67	0xbfe7a17c	-1.8096156
68	0xbe1522b9	-0.14564027
69	0xbf486617	-0.78280777
70	0xbf7ecbdc	-0.99529815
71	0xc04f0ee6	-3.2352843
72	0xbf318b63	-0.6935331
73	0xbf7666bf	-0.9625053
74	0xbe377d45	-0.1791888
75	0xbf576e7e	-0.8415297
76	0xbf42decc	-0.7612121
77	0xbfbb61d2	-1.4639227
78	0xbedb9cb7	-0.42893
79	0xbf26592b	-0.6497981
80	0xbf6aefd7	-0.91772217
81	0xbf399d0b	-0.72505254
82	0xbf7e78c6	-0.99403036
83	0x3f1f8e74	0.6232674
84	0xbf5c15cf	-0.8597078
85	0xbf9650a2	-1.1743357
86	0xbf59b22f	-0.8503751
87	0xbf138e04	-0.57638574
88	0xbf23d6f4	-0.6399987
89	0xbf81b47b	-1.0133203
90	0xbfb405ca	-1.4064267
91	0xbf59451c	-0.8487108
92	0xbf45f4e2	-0.77326787
93	0xbf342660	-0.70371056
94	0xbd717c1e	-0.058956258
95	0xbf012555	-0.5044759
96	0xbf13b646	-0.577
97	0xbf81ef90	-1.0151234
98	0xbf355291	-0.7082911
99	0xbf9f796e	-1.2458932
100	0xbf5b4383	-0.8564989
101	0xbf670ee1	-0.9025708
102	0xbeaf7705	-0.34270492
103	0xbfafb443	-1.3726887
104	0xbf3627b2	-0.7115432
105	0xbf2ca4f5	-0.67439204
106	0xbe1e3976	-0.15451607
107	0xbfdf3718	-1.7438688
108	0xc01c7e50	-2.4452095
109	0xbf507a56	-0.8143667
110	0xbf26050d	-0.64851457
111	0xbef38600	-0.4756317
112	0xbfb788e4	-1.4338651
113	0x3d4dce7c	0.050245747
114	0xc0464baf	-3.0983694
115	0xbf7fa10f	-0.9985513
116	0xbf2be309	-0.67143303
117	0xbfc812f1	-1.563078
118	0xbed36941	-0.4129124
119	0xbf77f5f2	-0.9685966
120	0xbf6d1817	-0.92614883
121	0x3e975f82	0.29565054
122	0x3ee6027b	0.44923767
123	0x3e1fc5de	0.15602824
124	0xc00c871e	-2.195747
125	0xbf375dc3	-0.71627444
126	0xbfa8c4a0	-1.3185005
127	0xbf937630	-1.1520443
128	0xbf0970ec	-0.5368793
129	0xbf0ba1f7	-0.54544014
130	0xbf933b21	-1.150242
131	0xbf4a81d0	-0.7910433
132	0xbe291355	-0.16511281
133	0xbe43792b	-0.1908919
134	0xbfea4ec2	-1.8305285
135	0xbface151	-1.3506261
136	0xbd97a2ea	-0.0740412
137	0xbeec9d1f	-0.46213624
138	0xbd0e5f59	-0.0347589
139	0xbf814782	-1.0099947
140	0xbf8e0e4b	-1.1098112
141	0xbfc4f0ea	-1.5386021
142	0xbf4fb8f0	-0.8114157
143	0xbf82e024	-1.0224652
144	0x3e4ad710	0.19808602
145	0xbf852b7d	-1.0403897
146	0xbed7d3f7	-0.42153904
147	0xbeb54698	-0.3540542
148	0x3f5d9860	0.8656063
149	0xbfcad28e	-1.5845506
150	0x3e1657e9	0.14681973
151	0xbfb61a47	-1.4226769
152	0xbfedd853	-1.8581642
153	0x3ec696b9	0.38786867
154	0xc042e1e2	-3.0450368
155	0xbf2b4bee	-0.66912735
156	0x3f26d223	0.65164393
157	0xbbd15a99	-0.006388974
158	0x3e12e91c	0.14346737
159	0x3d88d05c	0.066803664
160	0xbf4c6578	-0.7984233
161	0xbf669ce7	-0.90083164
162	0xc0b29f79	-5.581967
163	0xbe84b9a6	-0.2592289
164	0xbf833e65	-1.0253416
165	0xbf54f5ec	-0.83187747
166	0xbfbadfbf	-1.4599532
167	0xbf908564	-1.1290708
168	0x3f4c8905	0.79896575
169	0x3e77392c	0.24142903
170	0xbf33e82a	-0.7027613
171	0xbfa76835	-1.3078676
172	0x3e2596dc	0.1617083
173	0xbfcb000f	-1.5859393
174	0xbf3337db	-0.70007104
175	0xbf12a359	-0.572805
176	0xbf4f43c6	-0.8096279
177	0x3e6dc73b	0.23220532
178	0xbf8f9200	-1.1216431
179	0x3e3aff97	0.18261562
180	0x3d67d779	0.056601975
181	0xbf3c5f13	-0.7358257
182	0xbfcdc1be	-1.607475
183	0xbe93a1f6	-0.28834504
184	0xbe2063fe	-0.15663144
185	0x3fa6ce1d	1.3031651
186	0xbf759ccd	-0.95942384
187	0xbee581ff	-0.44825742
188	0x3de647c7	0.11244159
189	0xbebf4fb9	-0.3736551
190	0xbfecab7e	-1.8489835
191	0xbf347f00	-0.70506287
192	0xbe95b9ac	-0.2924322
193	0xbec17742	-0.377863
194	0x3f323573	0.6961281
195	0xbf1f4d5a	-0.62227404
196	0xbf956be0	-1.1673546
197	0xbed7a16d	-0.42115346
198	0xc0248d66	-2.5711303
199	0xc01a6a88	-2.4127522
200	0x3dcfdc81	0.1014948
201	0xbf15a576	-0.584556
202	0x3e9ee254	0.3103205
203	0xbe8c2910	-0.27375078
204	0x3eab7cd6	0.3349368
205	0xbefc87a7	-0.49322245
206	0xbec9b1c3	-0.39393434
207	0x3f153e08	0.5829778
208	0x3ed98b39	0.4248903
209	0xbd4a2fbd	-0.049361933
210	0xbe151579	-0.14558972
211	0x3e073c6d	0.13206644
212	0xbef8c164	-0.48585045
213	0xbdbe4529	-0.09290535
214	0x3ece50fb	0.40296158
215	0xbf2a276b	-0.664664
216	0x3dbf6cee	0.093469486
217	0xbf091d07	-0.5355992
218	0xbed574a4	-0.41690552
219	0xbf78f801	-0.97253424
220	0xbedf0a98	-0.4356277
221	0x3f158505	0.58406097
222	0xbd5837b5	-0.0527875
223	0xbf30388f	-0.688363
224	0xbf073deb	-0.52828854
225	0x3e788429	0.24269165
226	0x3f0d1fdc	0.5512674
227	0x3e9be01a	0.30444413
228	0x3db7a13f	0.08966302
229	0xbe8d3865	-0.27582088
230	0xbd3e3d61	-0.046445254
231	0x3f457a3f	0.7713966
232	0xbe518c12	-0.20463589
233	0xbf634f0b	-0.88792485
234	0x3e5d9a75	0.21640952
235	0x3ee90798	0.45513606
236	0x3e4df604	0.20113379
237	0x3e24caa6	0.16092929
238	0x3e00802f	0.12548898
239	0xbd23599e	-0.039880387
240	0xbe425f22	-0.18981603
241	0x3ed7b98f	0.42133757
242	0xbe5a0f08	-0.21294796
243	0xbe0af965	-0.13571699
244	0x3d9ada7d	0.075612046
245	0xbeb88d55	-0.36045328
246	0xbc0b6b7e	-0.008509515
247	0xbef31995	-0.47480455
248	0xbe9dd2e2	-0.30824953
249	0x3eaf21ba	0.3420542
250	0x3e66258f	0.22475265
251	0xbeb60087	-0.35547277
252	0x3ea61f8b	0.3244594
253	0xbe20f7c6	-0.15719518
254	0x3e5da087	0.21643268
255	0xbd89ee35	-0.067348875

weight f4 [1, 100]
0	0xbce4c317	-0.027925057
1	0x3e31f382	0.17378047
2	0xbe4295ad	-0.1900241
3	0x3f5fac6d	0.87372476
4	0x3e6a2eb7	0.22869383
5	0xbe819d73	-0.25315437
6	0xbe686451	-0.22694518
7	0xbe3831c8	-0.1798774
8	0xbffff1a1	-1.9995614
9	0xbf1e0e24	-0.61740327
10	0xbe9d5c67	-0.3073456
11	0x3edec99f	0.435132
12	0xbe3d4ea8	-0.18487036
13	0x3f376ff2	0.7165519
14	0x3d8cf473	0.068825625
15	0xbe7ec085	-0.24878128
16	0x3ea181fb	0.3154448
17	0x3e5384d4	0.20656139
18	0x3ce9d34f	0.028543143
19	0x3f0298c4	0.5101435
20	0xbeb4b9cb	-0.35298
21	0x3e4fc455	0.20289738
22	0x3ea36ae2	0.31917483
23	0xbe46358e	-0.19356367
24	0x3e8c9f67	0.27465364
25	0xbe652975	-0.22379096
26	0x3dcfd96e	0.10148893
27	0x3e65b31e	0.22431609
28	0xbe5e0f70	-0.21685576
29	0xbd9c6a52	-0.076374665
30	0x3eeed29c	0.46645057
31	0x3e4974a9	0.19673409
32	0xbddfc60c	-0.10926446
33	0x3f06750e	0.5252236
34	0xbea215f5	-0.31657377
35	0x3d9dfd08	0.077142775
36	0xbf0bf152	-0.546651
37	0x3e16cd30	0.1472671
38	0xbe07f5f5	-0.13277419
39	0x3d82a8d6	0.06379859
40	0x3e6e1d53	0.23253374
41	0x3df51789	0.119673796
42	0xbca93d8d	-0.020659233
43	0x3ee8cb9f	0.4546785
44	0xbe845ea6	-0.2585346
45	0x3d6540a2	0.05596984
46	0xbe21bdd1	-0.15795065
47	0xbdc2688b	-0.09492596
48	0xbf2bdf06	-0.6713718
49	0x3f025da6	0.50924146
50	0x3ded84f2	0.11597623
51	0x3db5d821	0.08879114
52	0x3e221bf8	0.15830982
53	0x3e8884f1	0.26663926
54	0x3f069552	0.52571595
55	0x3d23cf53	0.03999264
56	0x3ebad6b7	0.3649194
57	0xbdd496ad	-0.103803016
58	0x3e5740a6	0.21020755
59	0xbd62df10	-0.05538851
60	0xbe2244c9	-0.15846552
61	0x3d97e748	0.0741716
62	0x3ea486b2	0.32134014
63	0x3ea200db	0.31641278
64	0x3d30369b	0.043020826
65	0x3e9b5e90	0.30345583
66	0xbdbf25f5	-0.093334116
67	0x3f861145	1.047402
68	0xbd9a6313	-0.07538428
69	0x3e9b8df3	0.30381736
70	0xbcce81e0	-0.025208414
71	0xbd7c9fdf	-0.061675902
72	0x3ec60c12	0.38681084
73	0x3d8a3f46	0.0675035
74	0x3f2ae4ff	0.6675567
75	0xbe8df9b3	-0.27729568
76	0xbd91b6d2	-0.07114948
77	0xbee0f46c	-0.4393648
78	0x3f30e3be	0.69097507
79	0x3e37c087	0.17944537
80	0xbe0ff1bb	-0.14057057
81	0xbe647d31	-0.22313382
82	0xbf4b7392	-0.7947322
83	0xbf3fed0c	-0.7497108
84	0xbf1d9287	-0.6155171
85	0x3da0dfa5	0.07855157
86	0xbf553ab4	-0.832927
87	0x3dea4a01	0.114398964
88	0x3cf52425	0.029924462
89	0xbd3e87f0	-0.04651636
90	0x3d89e9e7	0.067340665
91	0xbc2adf6b	-0.010429244
92	0xbd93fb37	-0.0722565
93	0xbdde3a4a	-0.108509615
94	0xbf432032	-0.76221
95	0xbe694c39	-0.22782983
96	0x3c81a513	0.015825784
97	0xbe65b359	-0.22431697
98	0x3d04e478	0.032444447
99	0xbf8fbd46	-1.1229637

hidden_states f4 [1, 1, 100]
0	0xbb3f5e24	-0.00292004
1	0x3a9e45f6	0.0012075293
2	0x3a96cacf	0.0011504533
3	0x39cc7e8c	0.00039004197
4	0x3cc7b0ec	0.024376355
5	0x3bc051b9	0.005869117
6	0xbc7a61d4	-0.015282113
7	0x3bb72f83	0.0055903806
8	0x3a0dc4a2	0.0005408024
9	0x3cff7b74	0.031186797
10	0x399d8198	0.00030041928
11	0xbd1a8ab5	-0.037729938
12	0x3a5f9cdc	0.0008530149
13	0xbc10718a	-0.008816132
14	0x3a9515c2	0.0011374282
15	0xb9e3e153	-0.00043464694
16	0x3baa5810	0.005198486
17	0xba6360ee	-0.00086738064
18	0xba0a070b	-0.0005265332
19	0xbcb1c6e3	-0.021701282
20	0x3b4986be	0.0030750479
21	0x3ab1c5a8	0.0013562934
22	0x3b1705bd	0.0023044192
23	0xbb52386e	-0.0032077092
24	0xbbaaa509	-0.005207662
25	0x37347411	1.075586e-05
26	0x3cd12674	0.025531031
27	0x37ab4c47	2.0420308e-05
28	0x352af051	6.367964e-07
29	0xbd4808b4	-0.048836425
30	0xbc00ac73	-0.007853615
31	0x3db7f351	0.08981956
32	0x3bbd15c7	0.0057704183
33	0xbaa58b37	-0.001262999
34	0x3b2dad94	0.0026501166
35	0xbb1edd29	-0.0024240708
36	0x37753544	1.461554e-05
37	0xbc92d3a2	-0.01792318
38	0xba472df3	-0.00075980945
39	0x3c65f1c3	0.014034691
40	0xbb266995	-0.0025392522
41	0x3a8a1e32	0.0010537563
42	0x3aaee248	0.0013342584
43	0x3a7a9507	0.000955895
44	0xbb994403	-0.004677297
45	0xbbbb61f4	-0.005718464
46	0xbc9ff0a3	-0.019523924
47	0xb99f26d5	-0.00030355775
48	0xbc44d21d	-0.012012986
49	0xb9b943d3	-0.00035336483
50	0x3d02ad72	0.03190369
51	0xb7ae0e85	-2.0749178e-05
52	0xb8a8f316	-8.0561425e-05
53	0xbdd0c308	-0.10193449
54	0x3b82f15a	0.0039960565
55	0xbcac5fc0	-0.02104175
56	0xbb8fe1da	-0.0043909373
57	0xbbdb2e47	-0.0066888663
58	0x3c81c1c3	0.015839463
59	0xbc6b1ff5	-0.014350881
60	0xbc15ec90	-0.009150639
61	0x3bb40cc4	0.005494686
62	0x37ac0ed6	2.0510906e-05
63	0x3aa7a5e1	0.0012790525
64	0x3cfee106	0.031113159
65	0xbe01f06a	-0.12689367
66	0xbac1ef5f	-0.001479607
67	0x3b18ea7f	0.002333313
68	0xbd87f8df	-0.06639265
69	0xbb69d141	-0.0035677704
70	0xba46ebf3	-0.000758826
71	0xb50e349d	-5.2975685e-07
72	0xbb378992	-0.0028005582
73	0xbb6ad30b	-0.0035831358
74	0xbdf8d053	-0.1214911
75	0x3c56f518	0.013119958
76	0xbd0465b8	-0.03232357
77	0x3714f501	8.878532e-06
78	0xbd54ee85	-0.051985282
79	0xbd190511	-0.037358347
80	0xbd964a33	-0.07338371
81	0x3cf01bbf	0.029310105
82	0xba39b111	-0.0007083575
83	0x3eb59ad6	0.35469693
84	0xbcd72b50	-0.02626577
85	0xbcca3496	-0.024683278
86	0x3b81de2e	0.0039632535
87	0xbc521f9f	-0.012824922
88	0xbc10313a	-0.008800799
89	0x3cba3e9f	0.022734938
90	0x3995c555	0.00028566518
91	0x3af1dd48	0.0018452788
92	0x3c3c4888	0.011491902
93	0xbc3a0849	-0.011354514
94	0x3cb039d2	0.021511946
95	0xbc7c96cd	-0.015416813
96	0xbc4a9a18	-0.01236584
97	0xbcaba3bb	-0.020952096
98	0xba9c534c	-0.001192668
99	0xbbb882d2	-0.0056308294

hidden_states f4 [1, 1, 100]
0	0xbcf1cc79	-0.029516445
1	0x3cfef40b	0.031122228
2	0x3b2be01e	0.0026226114
3	0x3c13d1a1	0.009022147
4	0x3e13ed82	0.14446071
5	0x3e2997a7	0.16561757
6	0xbe31f247	-0.17377578
7	0x3d593a3c	0.053034052
8	0x3cb72cec	0.022360288
9	0x3ea22a15	0.3167273
10	0x3b442fc7	0.0029935704
11	0xbdd66bcb	-0.104697786
12	0x3d049067	0.032364275
13	0xbd4f9b04	-0.050684944
14	0x3d4be722	0.049780972
15	0xbca63220	-0.020287573
16	0x3d947155	0.07248179
17	0xbd0db7ec	-0.03459923
18	0xbc35ffd9	-0.011108362
19	0xbd676522	-0.056492932
20	0x3d5e1712	0.05422122
21	0x3e115973	0.14194278
22	0x3c4ffba8	0.012694277
23	0xbd0c0fca	-0.034194745
24	0xbd892e0d	-0.066982366
25	0x3b260ed2	0.0025338423
26	0x3de05d34	0.10955277
27	0x38a554a7	7.883581e-05
28	0x3a533a7c	0.0008057726
29	0xbdf35008	-0.11880499
30	0xbd912b43	-0.0708833
31	0x3ebbaaca	0.3665374
32	0x3cf1a821	0.029499115
33	0xbc2b5330	-0.010456845
34	0x3ced3b9c	0.028959088
35	0xbc32c716	-0.010911724
36	0x39aecf30	0.00033342233
37	0xbdee9ddd	-0.11651204
38	0xbc126736	-0.00893574
39	0x3dd58b11	0.104269154
40	0xbd660a5d	-0.056162227
41	0x3d37cf86	0.044875644
42	0x3c1153cc	0.008870076
43	0x3cfd2d9e	0.030905541
44	0xbdd6df3d	-0.10491798
45	0xbd8ce022	-0.068786874
46	0xbe4d06a1	-0.2002206
47	0xbc7b7e34	-0.015349913
48	0xbdbd7dfa	-0.09252544
49	0xbbb626ba	-0.005558816
50	0x3db4861e	0.08814643
51	0xbb78d19a	-0.003796673
52	0xbb4ffa72	-0.003173497
53	0xbf6af537	-0.9178042
54	0x3d35b0bd	0.044358004
55	0xbe4eddf5	-0.20201857
56	0xbde1fa74	-0.11034098
57	0xbd0cf381	-0.03441191
58	0x3dd8cae6	0.10585575
59	0xbf76d420	-0.9641743
60	0xbdae1060	-0.08499217
61	0x3e3d50de	0.1848788
62	0x3b66c3ee	0.0035211998
63	0x3c1f61de	0.009727923
64	0x3e3f1087	0.18658648
65	0xbe3d32ad	-0.18476363
66	0xbcfc195a	-0.030773807
67	0x3ceeefe5	0.029167125
68	0xbfd7962c	-1.6842704
69	0xbd2414a0	-0.040058732
70	0xbc87454d	-0.016512537
71	0xba33815e	-0.00068475853
72	0xbd060285	-0.032717247
73	0xbd2c0711	-0.041998927
74	0xbed9b1e1	-0.42518523
75	0x3e643e21	0.22289325
76	0xbe219eb6	-0.157832
77	0x39e88f1e	0.0004435712
78	0xbf0dbf34	-0.5536988
79	0xbe496e7e	-0.19671056
80	0xbea3f6d2	-0.32024246
81	0x3e148811	0.1450503
82	0xbcf4b174	-0.029869772
83	0x3f2016d8	0.62534857
84	0xbe3179b6	-0.17331585
85	0xbda8b6e1	-0.082380064
86	0x3ca696f2	0.020335648
87	0xbd1965b9	-0.037450526
88	0xbdebf5b5	-0.11521474
89	0x3e203a60	0.15647268
90	0x3beced28	0.0072304197
91	0x3d5af648	0.05345753
92	0x3d771c80	0.060329914
93	0xbd861b65	-0.06548194
94	0x3e5362fa	0.20643225
95	0xbe0ce3e0	-0.13758802
96	0xbded5fd1	-0.11590541
97	0xbdaf5431	-0.0856098
98	0xbc83b472	-0.016077254
99	0xbd85416a	-0.06506617
